Chatbot/data.pth (torch, 5015 bytes, 6 tensors)

l1.weight f4 [8, 54]
000000 57 b0 30 be a8 4f e5 bd 6a 33 b4 be 92 e8 0a be
       -0.17254768 -0.11196834 -0.35195476 -0.13565281
000010 37 97 0d be 33 00 29 3f 1d 17 1e 3d 4b 60 53 be
       -0.13827215 0.6601593 0.03859626 -0.20642202
000020 19 bb 5d be 55 d7 54 be 5c 1e 1a be 15 7d 2a be
       -0.21653403 -0.20785268 -0.15050644 -0.16649278
000030 00 1e 5f 3d 82 b2 94 bd 6c af 9f bd 67 43 8a 3c
       0.05447197 -0.0726061 -0.07797131 0.016877843
000040 56 d3 8b be b6 25 0e 3f 32 d6 83 3e fb cb c9 be
       -0.27309674 0.5552629 0.25749356 -0.39413437
000050 58 0b 8b bd cd e2 d8 be fe e8 d8 be 98 40 02 bf
       -0.06789273 -0.42360535 -0.4236526 -0.5087981
000060 97 43 42 be 7b 70 bf be 44 5f 1e 3f a0 c2 bd 3c
       -0.18971096 -0.37390503 0.61864114 0.023164093
000070 e6 30 b6 3e 1a 0b 15 3d 6a a5 cc 3e 15 fa 87 bd
       0.35584182 0.03638754 0.3996995 -0.06639496
000080 1d 9b b2 3b 43 a8 a2 be 0a 22 1d be a8 c0 d2 bd
       0.00545062 -0.31768999 -0.15345016 -0.102906525
000090 38 9b f3 3e 39 c8 70 be a2 f2 42 be a2 07 b6 bd
       0.4757936 -0.23513879 -0.1903787 -0.088881746
0000a0 13 82 10 3f 79 64 14 3f c0 1a 98 3d 73 be 3b 3c
       0.5644848 0.5796581 0.07426977 0.011458981
0000b0 7e 5f 88 be cf 8d 26 bd 1e f6 d8 be 39 fe 73 be
       -0.26635355 -0.040662583 -0.42375273 -0.23827447
0000c0 51 f5 04 3e ce e3 1f 3f 57 cb 12 bd 4f 5a c4 3e
       0.12984206 0.6245698 -0.03583845 0.3835015
0000d0 51 64 c2 bc f0 d3 64 3e 21 21 0c 3f 40 77 95 be
       -0.023729475 0.22346473 0.5473805 -0.29192543
0000e0 c9 7d ac 3e 8a 81 74 be c3 f0 eb 3d 04 eb fd be
       0.33689716 -0.2387754 0.11520531 -0.49593365
0000f0 d0 c9 93 3e 20 19 9c 3e 68 58 20 3f f8 20 95 3e
       0.28864908 0.3048792 0.626349 0.29126716
000100 1e e2 96 bd 9d e7 0a 3f 03 1f 1f 3f ac 08 05 3f
       -0.07367347 0.54259664 0.62156695 0.5196636
000110 8e de 14 bd 09 aa a3 3e ce dd 4a be 34 85 e8 be
       -0.036345057 0.31965664 -0.19811174 -0.45414126
000120 ab 3b 01 3f ed 18 93 be a9 5e f7 3e 12 dd 55 be
       0.5048167 -0.28729954 0.48314407 -0.20885113
000130 d6 73 cd be 59 1e 18 be a2 a2 dd 3e e5 4b 96 be
       -0.40127438 -0.14855327 0.4328814 -0.29354778
000140 f3 ee 03 3f 4d b4 f2 be fa 4c ae 3e 0a 2f 1e bf
       0.5153648 -0.47403184 0.34043103 -0.61790526
000150 94 72 b4 be c6 98 2b 3f 92 80 b0 3e e1 24 f8 3e
       -0.35243666 0.6702999 0.3447309 0.48465636
000160 d0 bf 5c bd f7 9c d8 3e da ae 7c 3e 07 6c 02 3f
       -0.053893864 0.42307255 0.24676076 0.50946087
000170 94 05 2b 3e 8e c3 9f 3e aa fa ba be a1 90 f7 3e
       0.16701347 0.31203884 -0.36519367 0.4835253
000180 2b 3d 02 3f ab 6e 81 be 08 3f 16 3f 76 36 63 be
       0.50874585 -0.25279745 0.5868993 -0.22188744
000190 4b 06 26 3f 4f 8c ed 3e 01 ef 09 3e a7 80 f8 3e
       0.6485335 0.4639611 0.13470079 0.48535654
0001a0 42 32 9e 3e 09 fe 00 3f c6 6d 66 3e 86 48 d9 3e
       0.3089772 0.50387627 0.22502813 0.42438143
0001b0 3e 25 b8 3e 84 54 ad 3e 20 22 d3 be 6f bb 96 be
       0.35965914 0.33853543 -0.41236973 -0.29439875
0001c0 1f 91 53 be 24 12 39 3f 05 8c 07 be 8a 94 48 be
       -0.20660828 0.72293305 -0.13237007 -0.19587913
0001d0 ee d3 6a be 2f bf 17 be 9e dd 22 be 31 c3 0c 3e
       -0.22932407 -0.14819025 -0.15904853 0.13746335
0001e0 14 ee 07 bd b6 44 d9 bd 47 dd a6 3e 8d c5 5c 3e
       -0.033186033 -0.10608809 0.32590696 0.21559735
0001f0 44 b2 89 be 45 d9 44 3f f0 75 a5 3e a3 26 db be
       -0.26893818 0.76894027 0.32316542 -0.42802915
000200 77 2c c7 3e 9d 27 db be 85 1e db be 4f 2d ec be
       0.3890111 -0.4280366 -0.42796722 -0.46128318
000210 5c 4a ed 3c 04 ac 00 be 38 f5 e1 3e 3d 3d 8c 3e
       0.028966121 -0.12565619 0.441324 0.2739047
000220 28 dc b9 3e 59 fe 3f 3e 98 7e b8 3e ec a2 1d 3d
       0.36300778 0.1874937 0.36034083 0.038485453
000230 45 28 da 3d 31 e1 63 be c3 51 d6 3d a3 c4 8f 3e
       0.10652212 -0.22253872 0.104648136 0.2807971
000240 20 85 a9 3e 46 c1 6d be ba 18 f8 bd ba 68 ee bd
       0.3310938 -0.23218259 -0.12114091 -0.11641069
000250 58 e4 9d 3e 4d 0a f3 3e c8 3e 92 3c 2d 57 dd 3d
       0.30838275 0.47468796 0.017852202 0.10807643
000260 dd e4 94 be a7 21 8a 3e 3c fd 33 3f 9b 19 86 3e
       -0.2908086 0.269788 0.7030828 0.2619141
000270 8a 59 08 3d a0 61 12 3f ab c0 2d 3e a1 ab 8a 3e
       0.033288516 0.57180214 0.16968028 0.27084067
000280 24 52 b2 bd 12 bf 75 3e a3 c0 ce 3e 10 4b 06 3e
       -0.08707073 0.23998669 0.40381345 0.13114572
000290 68 08 68 be a1 2f db 3e a1 4a a2 3e 96 35 1f bf
       -0.22659457 0.42809775 0.31697562 -0.6219114
0002a0 f5 31 55 be 58 d8 74 be 1b bd 1a bf 43 51 be bd
       -0.20819838 -0.23910654 -0.604448 -0.09292843
0002b0 03 b6 05 3f c5 15 83 be c8 cf fd bd d8 6e 3f be
       0.5223085 -0.25602546 -0.12393147 -0.18694627
0002c0 89 53 b0 bd 6a 95 75 3d 2f 63 0f 3f f1 d2 0f bf
       -0.08609683 0.059956945 0.5601072 -0.56181246
0002d0 be fd 03 3f e0 79 49 3f 8e 44 88 3e 57 43 30 3f
       0.51559055 0.7870159 0.26614803 0.6885275
0002e0 a0 9d 10 3f 73 af ac 3e c0 07 50 be 77 8b e2 3e
       0.56490517 0.33727607 -0.20315456 0.44247028
0002f0 0c 3e cd 3e c1 b6 a1 be 84 33 c6 3d e5 b2 df be
       0.400864 -0.31584743 0.096777946 -0.43691173
000300 31 1c d5 be bd da 9a be cd a0 4f 3e 60 29 c4 be
       -0.4162307 -0.3024501 0.20276184 -0.38312817
000310 6d 89 a3 be be 41 8c 3d f2 01 5e 3e 17 a6 ea be
       -0.31940785 0.06848477 0.2168043 -0.45829841
000320 74 d3 c0 bd 12 cf f1 3b fb 5e 7c be 46 e2 16 3f
       -0.094153315 0.007379421 -0.24645607 0.58939016
000330 b3 0d 83 be dd 4c 9a bd 7a db 6b be 58 46 21 be
       -0.2559639 -0.07534192 -0.23032942 -0.1574949
000340 27 43 2d 3f 25 3e c4 3e c9 ca f1 3e c5 82 11 3f
       0.6768059 0.38328663 0.47225025 0.56840163
000350 1c be 3f be d8 c7 06 3f 0f a9 0f be f4 5d db 3d
       -0.18724865 0.5264869 -0.14029334 0.107112795
000360 73 91 d4 3e 78 77 e1 3e b1 2a 46 be 06 16 e5 3e
       0.4151722 0.4403646 -0.19352223 0.44743365
000370 43 85 1b 3e 78 f9 de be 47 1a c5 bd 44 c7 da bd
       0.15187554 -0.43549705 -0.09624153 -0.10682538
000380 f3 55 ca be 69 59 87 be 83 83 d4 3e c8 e9 08 be
       -0.395187 -0.26435402 0.41506585 -0.1337043
000390 c8 97 ec 3c 63 d0 a7 be ed 09 f7 3e 7b 2c e2 3d
       0.028880969 -0.32776174 0.4824976 0.1104364
0003a0 b2 4b ce 3e 14 99 de be f6 e4 5f be 25 a7 1a 3f
       0.40292126 -0.43476164 -0.21864685 0.6041129
0003b0 64 be b4 3e 3b 50 bc 3e 7a 15 28 3f 97 e2 d3 3e
       0.35301507 0.3677996 0.6565777 0.41383812
0003c0 de f1 b1 bc ca 1c cc 3e c1 41 41 be 3c d9 0d 3f
       -0.021721777 0.39865714 -0.1887274 0.554096
0003d0 fd 06 27 be 69 ad 15 3f 1c b5 ae be 7c 2a 01 be
       -0.1631126 0.5846773 -0.3412255 -0.12613863
0003e0 78 93 74 3e d4 7f e4 be f4 a5 ec 3e 66 2f a0 bd
       0.2388438 -0.44628775 0.46220362 -0.078215405
0003f0 9e 4c 16 be 32 87 bc be 8a 6f 73 bb 5e 30 45 be
       -0.14677665 -0.36821896 -0.003714534 -0.19256732

l1.bias f4 [8]
000000 d3 e3 d8 3e 0d 98 10 3f c8 24 db 3e 73 68 23 3f
       0.42361316 0.5648201 0.428015 0.6383125
000010 10 1b df 3e a9 d0 1a 3f df 7b e5 3e 20 6b 42 3f
       0.43575335 0.6047464 0.4482107 0.7594471

l2.weight f4 [8, 8]
000000 1a 01 98 be fa ea 76 3d e3 0b f0 3d 61 7c f8 be
       -0.2968834 0.060282685 0.11721017 -0.48532394
000010 52 b0 2f 3f f8 34 92 be 9a f7 44 3f c2 c2 b6 3e
       0.6862842 -0.28556037 0.7694031 0.35695463
000020 78 77 0a bf 9b 67 9b 3f 6e cf 3a bf 8f cd 81 bf
       -0.54088545 1.2140993 -0.7297276 -1.0140857
000030 cd 39 68 bf 46 7f 23 3f 0d bc d7 3e 8c de 61 3e
       -0.90713197 0.6386608 0.4213566 0.22057551
000040 e1 c8 9e 3f 71 40 66 3f 96 42 ad 3f fa 61 39 3f
       1.2405053 0.8994208 1.3535945 0.72415125
000050 e5 67 d9 be d8 ba 0f bf 49 ca a9 3f 4d 16 cd be
       -0.42462078 -0.56144476 1.3264858 -0.40056077
000060 3d c2 f6 bd 99 b5 55 bd e9 60 1f 3f 96 4a 2f bf
       -0.12048767 -0.05217514 0.6225725 -0.68473184
000070 8c 9b af 3e 32 05 b0 3e 59 7b 3f 3f 19 cf 06 3f
       0.3429836 0.34378964 0.7479759 0.52659756
000080 82 a2 52 bf 91 71 2f 3d b5 47 90 be e1 e4 7e 3f
       -0.8227922 0.042832915 -0.28179708 0.9956799
000090 c6 cc c2 3f 83 01 99 3f 88 cb 7a be 9c 74 4c 3f
       1.5218742 1.1953586 -0.24491704 0.7986543
0000a0 38 ee 8d be 33 46 8f 3f e4 20 1c 3f 40 d4 f6 3e
       -0.2772081 1.1193298 0.6098769 0.4820881
0000b0 43 5e a1 3e a8 af 1c 3e af 17 42 3f 2f 9c 86 bf
       0.31517228 0.15301383 0.7581739 -1.0516413
0000c0 d9 bf 08 bf 5e 9a 89 3e 32 34 61 bf ed 37 63 3f
       -0.53417736 0.26875585 -0.8797027 0.8875721
0000d0 fb 71 46 3f 9d c3 36 3f 58 63 8f bf b6 26 8c 3f
       0.7751767 0.7139223 -1.1202192 1.0949314
0000e0 51 4f 2d 3f d5 a2 e1 be 74 b2 bb 3e 67 a8 98 bf
       0.6769915 -0.44069543 0.36659586 -1.1926392
0000f0 83 27 47 bf 47 c1 ac 3e 71 42 61 3f d7 d4 a1 3f
       -0.77794665 0.3374121 0.87992007 1.2643079

l2.bias f4 [8]
000000 21 47 4c be 17 15 c2 3e 45 08 8b 3e 5d 0a e3 be
       -0.19949009 0.37906715 0.27154747 -0.44343844
000010 0f 24 7a 3e bd 40 1d be 9b a6 39 3f 9f 73 0c 3f
       0.24427818 -0.15356727 0.72519845 0.54863924

l3.weight f4 [7, 8]
000000 50 0e d4 3e 10 76 45 3f fc 7d 11 bd 17 50 40 3e
       0.4141717 0.77133274 -0.03552054 0.18780552
000010 8a 1d 43 bf a9 38 9b 3d bb 7c 30 bf 0c 28 c4 bd
       -0.7621695 0.075791664 -0.68940324 -0.09577951
000020 20 34 84 3e 78 e3 63 bf 4c 83 45 bf 0b c1 d4 3e
       0.25821018 -0.89018965 -0.7715347 0.4155353
000030 85 71 79 3e 1e 2f 2a bf 77 df ef bd ef a0 9e 3e
       0.2435971 -0.66478145 -0.117125444 0.30982158
000040 f0 ae b8 3d 0c c8 b6 bf 21 0a 07 3f 7f d8 9c 3e
       0.09017742 -1.42798 0.5274983 0.30633923
000050 c6 2f a0 bf fd 04 08 bf 18 bc 1d bf 71 b3 36 3f
       -1.2514579 -0.5313261 -0.61615133 0.71367556
000060 65 3f 95 bf b3 43 89 bf cf a6 80 bf 96 f7 8c bf
       -1.1659971 -1.0723785 -1.0050906 -1.1013057
000070 b4 dd 5d 3f 96 4f 27 bf 69 a6 3d 3f 0c f1 2b bf
       0.8666642 -0.65355814 0.74082047 -0.67164683
000080 22 2a 3a bf 7f 73 61 bf 9f 6d 54 3f b2 02 a6 bf
       -0.7272054 -0.8806686 0.8297977 -1.2969573
000090 f5 ce 44 bf 56 9a 09 3f 84 e5 74 bf 17 75 39 bf
       -0.7687829 0.5375112 -0.95662713 -0.7244429
0000a0 ff 95 a8 bf 3b dc 8a 3f 1c 2b 82 bf 73 2d 74 be
       -1.3170775 1.0848459 -1.0169406 -0.23845463
0000b0 4e 6b 6d bb 11 6d 94 be 46 4c 8c 3e e1 5b 77 3e
       -0.0036227289 -0.2898946 0.27401942 0.24156143
0000c0 76 2d ac be a0 0e 56 bf 15 4d 0c 3e 28 6b 07 3e
       -0.33628434 -0.83616066 0.1370128 0.1322447
0000d0 24 72 0a 3f d2 91 15 3f fc 78 bb be 9d bb 88 bf
       0.54080415 0.5842563 -0.3661574 -1.0682255

l3.bias f4 [7]
000000 5a 66 71 be b7 19 11 be c3 dd f8 3e 93 31 e4 3e
       -0.235742 -0.14169966 0.4860669 0.44569072
000010 2d 89 d4 3d e4 d2 99 be 43 e4 78 be
       0.10377727 -0.3004371 -0.24305825
